Model/gesture_model.tflite (tflite, 16908 bytes, 5 tensors)

arith.constant f4 [1, 32]
00000000: 6738 223f 7a88 13bf fe17 0f3f 5e76 04bf
00000010: 11ab e2be bdf3 013f ed2b 953e cf57 0e3e
00000020: bc05 f1be 59dc bd3e cdb2 283f da31 a03e
00000030: 45cd 19bf 20e8 c9be ad1f 0bbf c237 de3e
00000040: d4d7 083f f212 65be 890a 5d3e 81f7 083f
00000050: c14e 75be bb4d 2dbf dff6 9abe 0dea 66be
00000060: 8626 c63e c2ff 30bf 7c7e 4ebf 162d 513f
00000070: 016e 813e 3cf3 d13e fa55 373f 21bf 19bf
0.63367313 -0.5763012 0.55895984 -0.51743114 -0.44271138 0.5076254 0.29135075 0.13900684
-0.47074687 0.37082174 0.6589783 0.31288034 -0.6007884 -0.3943491 -0.5434521 0.43401915
0.5345433 -0.22370508 0.2158605 0.5350266 -0.23955823 -0.6769673 -0.30266473 -0.22550221
0.38701266 -0.69140255 -0.8066175 0.8170942 0.2527924 0.41005886 0.71615565 -0.60057265

arith.constant1 f4 [32, 64]
00000000: 1d97 ba3e a5a3 0cbd 731d edbb f476 00be
00000010: 0238 3a3e eb4f 2e3e e46b a73e a631 a83d
00000020: 6a71 95be 51c6 bcbe 5b94 70be c594 6ebe
00000030: 6d82 93bd 9279 653d 526d 883d ba48 81be
00000040: 336d 9c3e 3e9f 3b3e 754a 323e 0fc5 ecbb
00000050: 8bb8 a13d f28a 2b3d 2956 1fbe 6b0b f0bd
00000060: c88a 673e 046b 18be 0f2b 65be a242 64bd
00000070: fae2 d2be feb3 c3be a848 fabd 9f7f 65bd
00000080: a0f4 15be 53dc 853c f52f 99be cfba 263e
00000090: 2e55 a0bd 5186 d9bd 5270 dc3d d624 f0be
000000a0: 0811 c2bd e64f bdbd b7b0 713d 5aa0 9b3d
000000b0: 090a 03be 83de e93d 7ab4 a4be 8525 183e
000000c0: e582 b2be 055d 14be 851e d7bb 52a1 803e
000000d0: 1a7e 8dbd 70fe a8bd 77b6 3fbe 2461 983e
000000e0: 98ec 36be 2352 503e 576a 663e 5be5 14be
000000f0: 1465 cc3d 2be0 23be eb3c a1bd b023 1ebf
00000100: ad5d 893e 76f7 453d e699 b33e 81d2 0e3e
00000110: df0a 823e 726f c8be 3cb7 04be 7f0b 01bd
00000120: b19d ddbd f566 773e 2065 6f3e d6bb 9c3c
00000130: fdaa 543e bab2 ab3d f7d6 93bd b9a2 acbe
00000140: 70da ebbd 1b75 71be 7467 0fbc 9c74 a13d
00000150: 3ef1 ab3d a080 8bbe bd3e aebe 1523 9bbe
00000160: 85a9 d23e 014e 8abe d83e 15be a68d 8b3c
00000170: c739 6a3d fa19 e5bb 42a1 82be f585 bd3d
00000180: f932 863e a8f6 743d 90cb 933e 347d 823e
00000190: 8d3d 823e 00be 813e a950 45bd 3c8a c13d
000001a0: 785c 6c3e a4b0 0fbe 9717 06be 5d54 ddbd
000001b0: 527b 823e 1379 a73e 5df9 20be 4c15 993e
000001c0: 5d05 9abd db6b bcbd b25c 5fbe c020 0c3e
000001d0: 1144 323e 4c6b 08bd 2daa 57bd 0655 47be
000001e0: 5a42 46be 63bd 643e 1969 9cbe 13af d23d
000001f0: 9d5e 79bd 2213 7dbe 2aaa 3b3e 448a 963e
00000200: 5559 25be d8e7 e93d f1c9 28be b40e 8f3d
00000210: e491 86bd 4d04 853e 495c a8bd c835 8b3e
00000220: 8ca4 02be 1449 02be 6b45 7fbe 0d53 243e
00000230: c264 5a3c 4608 fbbb 9649 0b3e a091 a53e
00000240: 81b0 8c3e 6f66 963e 9664 d0bd 3757 0a3e
00000250: 12b7 7ebe d732 1e3e 13f1 c83d 0cdc 403e
00000260: 8de7 c13b 67cf 07be 203d 2abe c9d7 053e
00000270: 6159 0fbe d73c 90be 0a43 233e 7278 a2be
00000280: 4742 42be 0622 a63e bba3 86be bf9c e4bd
00000290: f7a7 e5be 9377 0d3e 71b7 b23d 7293 86be
000002a0: 6e46 18bd 3ef3 cc3e 7ec2 bd3e bc41 153e
000002b0: b599 8bbd 8f80 19be 45f8 923d 91d3 4cbe
000002c0: 49a0 3f3e c55b 04be 7243 5abe ddef fa3d
000002d0: f3da 7c3e 046e 113e f612 21be a8da 7bbd
000002e0: b552 f03d 69d6 d9bd efd8 09be 8417 073e
000002f0: 5233 a33e 1475 30bd 3e39 863e ed25 2b3e
00000300: 5ceb 38be b268 6e3e 4ad1 813e d04a 57be
00000310: 30c3 823d 7cfd cb3d 1185 da3d 9764 c7bd
00000320: 6d58 bf3d e94d 4f3e a344 37be ea83 3dbe
00000330: bcfe 43be 79d7 9b3e e59c 18be 0ad2 803d
00000340: 2fbf 203d 48c4 6e3e 2804 90bd be6f 443e
00000350: b751 46be 6321 373e 8739 1cbe 2e03 e0bd
00000360: 8e86 083e 31b5 bdbd 5061 04be 2631 8fbe
00000370: c2ac 46bc b1d6 913c 0ca9 213e d2c5 3a3e
00000380: a9c8 af3d d7b6 65bd af35 c53d 8439 f63d
00000390: 64f5 77bd 1951 a83e 6ff8 debd 6e93 423e
000003a0: 9bdf 783e 1d7e 73be 39aa 18bd 72e5 cabe
000003b0: 2b94 1bbe 7fdd 163e 25b0 3d3d 48b8 643e
000003c0: f3d6 883d c74a 46bc d0a6 413d 4a25 483e
000003d0: e1c9 733c 5a6b 0f3e 1174 f93d 7f11 d5bd
000003e0: 9c2a d93d dc65 ad3d eed3 08bd 2a06 e2bc
000003f0: c440 043d 16f5 0dbe b3bf 91bd 3886 043e
0.36443415 -0.03433575 -0.0072361766 -0.12545377 0.18185428 0.17022674 0.32699502 0.08212595
-0.2918809 -0.36870053 -0.23494093 -0.23298939 -0.07202611 0.05602414 0.06661476 -0.25250798
0.30552062 0.18322465 0.17411216 -0.0072256397 0.07896527 0.041880555 -0.15560211 -0.11720928
0.22611535 -0.14884573 -0.22379707 -0.05572761 -0.41188794 -0.3822326 -0.12220889 -0.056029912
-0.14644098 0.01634041 -0.299194 0.162822 -0.07828747 -0.10621322 0.10763611 -0.46903104
-0.09475905 -0.09243755 0.05900642 0.07598944 -0.12796797 0.11419394 -0.32168943 0.14858063
-0.3486549 -0.14488609 -0.0065649175 0.25123078 -0.069088176 -0.08251655 -0.18721949 0.29761612
-0.17863691 0.20343833 0.22501503 -0.14540617 0.099802166 -0.16003482 -0.07872947 -0.61773205
0.2682928 0.0483317 0.35078353 0.13947488 0.2539892 -0.39147526 -0.12960523 -0.031505104
-0.10821093 0.24160369 0.2337842 0.019132536 0.20768352 0.08383699 -0.07218736 -0.33717898
-0.11516273 -0.23579828 -0.0087526925 0.078835696 0.08395623 -0.2724657 -0.3403224 -0.30300203
0.41144958 -0.27012637 -0.14574754 0.017035317 0.057184007 -0.006991622 -0.25513655 0.09254066
0.26210764 0.059805542 0.28866243 0.25486147 0.25437585 0.2534027 -0.048172627 0.09450194
0.23082149 -0.14032227 -0.13094936 -0.10807107 0.2548471 0.3270956 -0.15720125 0.2989906
-0.07520554 -0.09200259 -0.21812704 0.13684368 0.17408778 -0.03330545 -0.052652527 -0.19466028
-0.19361249 0.2233787 -0.30548933 0.10287299 -0.060881246 -0.2471433 0.18326631 0.29402363
-0.16147359 0.11421174 -0.16483285 0.06985226 -0.06570795 0.25979844 -0.08220727 0.2718947
-0.12758082 -0.1272319 -0.24928825 0.16047306 0.013329687 -0.0076608984 0.1360229 0.32337666
0.27478412 0.29375026 -0.10175435 0.13509832 -0.24874523 0.15449081 0.09811606 0.18833941
0.0059174956 -0.13262711 -0.1662488 0.13070597 -0.13998939 -0.28171417 0.15943542 -0.31732517
-0.18970595 0.32447833 -0.2629679 -0.111627094 -0.4485471 0.13815145 0.08726395 -0.26284367
-0.037176542 0.4002933 0.37062448 0.14575857 -0.06816427 -0.14990447 0.0717626 -0.20002581
0.18713488 -0.12925632 -0.21314791 0.122527815 0.24692897 0.14202124 -0.1572989 -0.061487824
0.11734525 -0.106365986 -0.1346166 0.13192564 0.31875092 -0.043080404 0.26215547 0.16713686
-0.18058532 0.23282126 0.25354987 -0.21024632 0.06384885 0.09960458 0.10669912 -0.09735983
0.09343038 0.20244564 -0.17897277 -0.18507352 -0.19140142 0.3043783 -0.149036 0.06290062
0.039244827 0.23317063 -0.07032043 0.19183251 -0.19367109 0.1788383 -0.1525632 -0.109381065
0.13332579 -0.09263075 -0.12927747 -0.27967185 -0.01212615 0.017802568 0.15787143 0.18239525
0.08583195 -0.056082573 0.0962938 0.12022689 -0.060536757 0.32874373 -0.10887229 0.19001552
0.24304049 -0.23778577 -0.037271712 -0.39628178 -0.1519324 0.14732932 0.046310563 0.22335923
0.06681623 -0.012102789 0.047278225 0.19545475 0.014879675 0.14005795 0.12180341 -0.10403728
0.1060383 0.08466694 -0.033405237 -0.02759083 0.032288328 -0.13863024 -0.07116642 0.12941825

arith.constant3 f4 [32]
00000000: 09b1 fbbd 62d4 0a3e 85f4 1e3d f8a9 cb3d
00000010: ed49 0c3e aa4a 89bd c9cb a83c 7301 96bd
00000020: 846c 073e 7e16 a0bd 5f26 783d 8121 1abd
00000030: 6f5a de3d e44f b93c cf4c 1a3e 9733 45bd
00000040: 6249 b73b 9a86 183e 822f d7bd 40b9 e1bd
00000050: 8a71 b83d 2339 e53d 8cf5 083e e2d9 e73d
00000060: 3e74 183c 40ce 0a3e 004b c23d 33e9 e13d
00000070: 4fc1 cfbd 5b24 a6bd 6806 363c 6024 8d3d
-0.12289626 0.1355758 0.03880741 0.09944528 0.13700075 -0.06703694 0.020604985 -0.07324495
0.13224989 -0.0781679 0.06058347 -0.037629608 0.108570926 0.022621103 0.15068363 -0.048144903
0.0055934647 0.14895096 -0.10507108 -0.11021662 0.09006031 0.111925386 0.13374919 0.11320855
0.009305058 0.1355524 0.09486961 0.11030807 -0.101442926 -0.08112403 0.011109926 0.068917036

sequential_1_1/dense_3_1/Add/ReadVariableOp f4 [64]
00000000: f930 b63d 19c6 073d 2e9a 24bd be11 5c3c
00000010: 36e8 7b3d 366a 2ebe 4de3 62bd f2bb 80bd
00000020: c3eb 47bb 6746 f23c a909 c23d f111 86bd
00000030: 9b95 963d 91e2 c0bd 972b 44bd f394 36be
00000040: add8 abbc 3a36 223d bb20 983d 8ef8 fb3d
00000050: d3af 39bd 3692 36bd 6382 ddbc d8ff 2a3e
00000060: 4c67 9d3d f0f4 9fbb d73f dbbd 515a 36be
00000070: df4d 673e 0c82 5b3e 6fb2 fe3c 744f 593d
00000080: 9ad1 c03d bdb1 ce3d 3736 c73d d358 893d
00000090: 6d6a d83d 1128 3b3d d0a1 1abd 0eeb bfbc
000000a0: 59cb b93d 1e54 a03c 76b8 e7bc 7cd3 fb3c
000000b0: cd08 813d a73a 253e cfe6 453d dc1c 963d
000000c0: d149 f13d 3e48 c6bd 0925 adbd 26a9 cebb
000000d0: 32fc 8f3d 318f 38bd 79e4 393e 434a b1bd
000000e0: d445 47bc ca14 f43d 8550 90bd 3370 10be
000000f0: eef1 02bc dc98 cdbc bdc9 b6bd 93b9 653e
0.088960595 0.033147905 -0.0401861 0.013431964 0.06150075 -0.17032704 -0.055392552 -0.06285848
-0.0030505515 0.029574586 0.09474499 -0.06546391 0.07352754 -0.09418214 -0.047893133 -0.17830257
-0.020977343 0.039602496 0.07428118 0.123032674 -0.045333695 -0.04457303 -0.027039712 0.16699159
0.07685718 -0.0048814937 -0.10705536 -0.1780789 0.22588299 0.21436328 0.031090943 0.053054288
0.09414978 0.10092495 0.097271375 0.06706395 0.10567174 0.045692507 -0.037751973 -0.023427512
0.090719886 0.01957136 -0.0282862 0.030740492 0.06300507 0.16135655 0.04831582 0.07329723
0.117816575 -0.09681748 -0.084543295 -0.006306785 0.07030524 -0.045058433 0.18153562 -0.086567424
-0.012162644 0.11918028 -0.07046608 -0.141053 -0.007992251 -0.025097303 -0.08925197 0.22434072

sequential_1_1/dense_3_1/MatMul f4 [64, 24]
00000000: 6353 c3bd 05f9 ab3d 0611 503e 2e24 d5bd
00000010: a0ab 8e3e 6e7c 913d 488a 883e a7a3 773e
00000020: 2001 8cbe d708 10bd 980a a03e 06a4 aa3e
00000030: b514 a53e 962b 95be 4d3a 81be 7c71 9abd
00000040: 2caf c0be 4e9f 5dbc 0f5a ec3d b926 2d3e
00000050: 48f8 bbbb e324 7bbe d027 673e 15bb b8bd
00000060: d59f 83be 80fb 2f3e 2917 883b 7f91 9a3e
00000070: e278 6f3e d9fc d9be 819a c43d c024 433d
00000080: eadc 983d dc1c 583d 0b07 85be 8de1 b2bb
00000090: f692 b23d 54db b73e b90e 883e 4858 923e
000000a0: 50b9 483e 74ee eebd 4f62 98be 14ea 5d3c
000000b0: edc7 3dbd 7e01 e63c dfaa 7c3d 58f0 323e
000000c0: e4c2 063e fec9 83be dc55 403d e79b 713d
000000d0: e32b eb3d f351 af3d 50f3 74be c15c 93be
000000e0: bfa8 503d f7f1 a6bd 892d 013e 8afb a6bd
000000f0: f1c8 003e 8793 abbe 1c8a 89be f3a7 413d
00000100: 6697 0c3d 830e 31bd 250b 0bbd 2f46 033e
00000110: 73ed e6ba bbdb b0be c5bd 4cbe 599f 293d
00000120: 31d5 1cbd 4677 f93d a885 2dbe 7393 0c3e
00000130: 3598 3cbe bfde a7bd 1384 eb3e a293 2a3e
00000140: 3f7a cc3d b1c7 ec3c f503 4cbe f601 15be
00000150: 7fc4 11be 7b10 5bbd 3e4d 32be 29e6 8ebd
00000160: 2cc0 0bbe e79f 5b3d b2bd 05be d4d2 bfbd
00000170: afa1 473d 5164 523e 14cf 013e d49c 4cbe
00000180: 2f08 d43c 9987 1e3e fb36 dbbd 05ec 953e
00000190: 3b71 9ebd f650 8cbe 5f71 6f3c 0493 413e
000001a0: 1d21 b63e 493f c63d 4b45 c73e 9f18 ce3d
000001b0: dc81 9e3e 708b 7fbd 0cc6 73be e550 52be
000001c0: b600 97be 2f9a 3fbe 64d8 a83d 3d2f c23d
000001d0: 57ad 963c 199f 553e 7ca0 623c 6bef c3bc
000001e0: 81a5 7f3e cfe6 f13c 125d 09be 52dc 1e3e
000001f0: b6ab 013f 3dd9 983d 6639 79be e23c 4f3e
00000200: 4ad5 a2bd 0ed1 a33d 24eb 4f3e ae22 2fbe
00000210: f2a9 05bf 2555 debe 8fa9 e2bd 6c9e 113f
00000220: fc9f b13c 8daa b4be 7906 88be cef9 c33d
00000230: af11 aabd ce15 d93d 7aeb 9f3e d8d3 0bbc
00000240: 4ac5 82be af3b 6e3e fd25 d33e 6405 b23e
00000250: fb8e 333e b491 3bbd 9a71 8c3e 4572 7c3d
00000260: 87f2 023e fe92 6f3d c27c 523e e4de dabc
00000270: 79d5 803e 99bf 24be 72d2 21bd ae4b dabd
00000280: 6af2 9cbd aa74 edbc 9253 ba3c d3c0 44bd
00000290: 4d15 bb3c 2937 98be ab4a 63be c98e 03be
000002a0: da40 ff3d 9d4a 27be 28cc dd3d 5d43 c63d
000002b0: d00f 973e f904 463e 7359 94bd ce9c 92be
000002c0: 751d 2dbd c6a7 0f3d b666 223e f49d 46bd
000002d0: 2f99 b1bd 83d7 8fbe 0689 ce3d c839 29bd
000002e0: 5ecb b13d 49d4 f13c b075 aabe be80 46be
000002f0: ef87 653d 9553 f23d a0be 2a3e 56e4 e4bd
00000300: 8996 f93c fc9d 95be 6efa b63c 5280 813c
00000310: 3a20 153e 81a1 97be 3fd0 4a3e 65e6 003d
00000320: 4e08 17be 4cf1 1d3d d4ba 573e 2dc2 bbbd
00000330: 4460 573e bb1c f73e 3cdb e53e 3eb2 81bd
00000340: 38c8 3a3e 63ae 35be d6b5 f4bd f670 93bd
00000350: 5f55 10bd 2170 fb3c b546 66bd b1c4 32bd
00000360: 58bc c03c f540 b33d 54ea 7e3e f89e 6c3e
00000370: 26d1 06bd b3ef 72be 310c 7bbd 9d77 14bd
00000380: 3881 6fbb 9192 06be 2b89 79be e769 d0bd
00000390: 11f9 ae3d 5b3b c2be d22c 2fbd ca74 64be
000003a0: 9553 333e bfd2 213e adb9 05be 237c 753e
000003b0: 02c9 18be e34a 22be 3f57 003d 4c42 a1bd
000003c0: b227 823d da32 223e d945 c93d 658e 813e
000003d0: 68f5 1e3b 3742 cd3d 2258 6c3c 3078 7d3d
000003e0: 824e 1f3d 629d 313c 2f8e 013e 85cd d4bd
000003f0: 3907 d33e b179 8c3e d236 df3b 8dbf afba
-0.09537389 0.08397106 0.20318994 -0.10407291 0.27865314 0.07103811 0.26668 0.24183522
-0.27344608 -0.03516468 0.31258082 0.33328265 0.3224236 -0.29134816 -0.25239792 -0.07541177
-0.37633646 -0.013526751 0.11540615 0.16909303 -0.0057363845 -0.2452579 0.22573781 -0.09020058
-0.2570788 0.17185783 0.0041531515 0.3018913 0.23385957 -0.4257572 0.09599782 0.04764247
0.07464011 0.052761897 -0.25981936 -0.0054590167 0.08719437 0.35909522 0.26573732 0.28582978
0.19601941 -0.11666575 -0.29762504 0.013544578 -0.046333242 0.028076883 0.061686393 0.17474496
0.13160282 -0.25740045 0.046956882 0.05898657 0.1148298 0.085605524 -0.23920941 -0.28781703
0.05094218 -0.0815162 0.12615027 -0.08153446 0.12576653 -0.33510992 -0.26863182 0.04727931
0.034324072 -0.04322673 -0.033946175 0.12819742 -0.0017618373 -0.3454264 -0.19994266 0.04141173
-0.038289253 0.12180953 -0.16945517 0.13728122 -0.18417437 -0.08196782 0.45999202 0.1665788
0.09984254 0.028903814 -0.19923384 -0.1455153 -0.14235114 -0.053482514 -0.17412278 -0.06977493
-0.13647527 0.05361929 -0.13060644 -0.09366384 0.048738178 0.2054608 0.1267665 -0.199817
0.025882808 0.15481414 -0.10703846 0.2928163 -0.07736441 -0.27405518 0.014614432 0.18903738
0.35572138 0.096800394 0.38920054 0.1006329 0.3095845 -0.062388837 -0.23806018 -0.20538671
-0.2949273 -0.1871116 0.08244398 0.09481666 0.018393202 0.20861472 0.013832208 -0.023917874
0.24965478 0.029529003 -0.1341441 0.15513733 0.50652635 0.0746331 -0.24338302 0.20238069
-0.07950838 0.079988584 0.20304543 -0.17103073 -0.5221244 -0.43424335 -0.11067497 0.5688236
0.021682732 -0.3528637 -0.26567438 0.09569131 -0.08304154 0.10599862 0.31234342 -0.008534394
-0.25541145 0.23264955 0.4123992 0.34769738 0.17535011 -0.04579325 0.2743042 0.061632413
0.1278783 0.058489792 0.20555404 -0.02671761 0.25162867 -0.16088714 -0.039507337 -0.10658966
-0.07663424 -0.028986294 0.022744928 -0.048035454 0.022837305 -0.29729584 -0.22196452 -0.12847437
0.12463541 -0.16337056 0.10829955 0.09680817 0.2950425 0.19337834 -0.072436236 -0.28635257
-0.04226442 0.03507211 0.15859494 -0.04849048 -0.086717956 -0.2809411 0.10084729 -0.04131487
0.08681367 0.02952017 -0.33292913 -0.19385049 0.05603784 0.11832348 0.1667428 -0.11176364
0.030467289 -0.29222095 0.022336211 0.015808258 0.14563075 -0.29615405 0.19806002 0.03146972
-0.14749262 0.038560197 0.21067363 -0.091678955 0.21032816 0.48264107 0.44893825 -0.06332825
0.1824044 -0.17742305 -0.11948745 -0.0719928 -0.035237666 0.030693116 -0.056219775 -0.04364461
0.02352731 0.08752624 0.24894077 0.23107517 -0.032914303 -0.2372425 -0.061290924 -0.036246885
-0.0036545526 -0.13141848 -0.24368732 -0.10176449 0.085435994 -0.3793591 -0.042767353 -0.22310176
0.17512353 0.1580305 -0.13059111 0.23973136 -0.14920428 -0.1584888 0.031333204 -0.07873973
0.063552275 0.15839711 0.098277755 0.2530395 0.002425516 0.10022395 0.014425309 0.061882198
0.03889323 0.010840746 0.12651895 -0.10390762 0.41216448 0.27436593 0.006811955 -0.0013408527
