Code/Model/gesture_model.tflite (tflite, 25184 bytes, 4 tensors)

arith.constant f4 [2, 16]
00000000: 2ab2 803f dce3 ad3d 89e3 a8bc 7695 703f
00000010: 36c7 7e3f 117e 91be d621 0d3f 22ca 6b3f
00000020: 6891 243f d556 bdbe 5265 d3be 7d50 b53e
00000030: 7586 afbe 1acc 8e3e 8125 4d3c 171c 42bc
00000040: b1f2 f3be 8d49 51bf 9a6c 813d a16b ccbd
00000050: da12 77be 0c64 75be bcd5 37bf 9b80 b8be
00000060: c9ad 95be 9f90 733d 42b6 023e 7947 43bf
00000070: 72e9 a63e f9dc 4bbf d064 69bf eab5 67bd
1.0054371 0.08490726 -0.02061631 0.9397806 0.9952272 -0.28416494 0.55129755 0.92105305
0.6428437 -0.3698031 -0.4128824 0.3541297 -0.3428227 0.27890092 0.012521149 -0.011847517
-0.47646096 -0.81752855 0.06319542 -0.09981466 -0.24128285 -0.23963946 -0.7181051 -0.36035618
-0.2923415 0.059464093 0.12764838 -0.76280934 0.3259998 -0.7963405 -0.9116945 -0.05656997

arith.constant1 f4 [16, 360]
00000000: d3ff 163f 4107 febd 2084 b23e b7c4 b1be
00000010: 0887 f43d ca34 96be 23a4 e03e 18b0 163c
00000020: 3eb6 ae3e f378 c2be c25c c3bd 3b4f a0be
00000030: d698 303f 9986 81bb 0c5a aa3e 2e21 95be
00000040: a97b 4b3d 086f 31be 9e2f 1e3f 2272 253e
00000050: 56b8 a23e afef 8ebe 7d67 4fbc 6b20 cebe
00000060: ac53 253f feb6 ecbd aa99 e43e 2d9a 85be
00000070: b73f 1dbd b7c1 b0be 471e 083f 4ed0 9e3c
00000080: 5b38 0c3f 487f 86bd cb5f 9b3e 2950 a1be
00000090: c63b 033f d4d0 93be 1eb4 b33e 91e6 adbc
000000a0: 0716 113e a5f5 a1be 36e7 293f 795e 18be
000000b0: 2e4f de3e b5c3 8b3d 808a 913d 80da bcbe
000000c0: 9d17 773f 2a11 e4bd 97ab 003f 1dae 9d3d
000000d0: 551e aa3d 1208 febd cf46 533f d8d8 babc
000000e0: 0d1f e53e 8dd6 133e dcc4 893d 27fd f4be
000000f0: 757e 373f b82e 0c3d 64b4 c13e d630 b53e
00000100: f6ba 093d 2272 b7be 6ce0 563f fe7c 94bd
00000110: 9b75 a03e bad5 863e bcfa 97bc 14ee 0c3e
00000120: 340d 363f 0341 8dbb 2aab bd3e 3325 ee3e
00000130: b76b 823d 7896 abbd 3966 2c3f bac3 133e
00000140: 4489 ff3e 5b8b e53e 0bd0 ebbd 0caf e6bd
00000150: 4a65 4a3f 79ca a43c d955 b83e d81e cf3e
00000160: a0d4 253e 3f89 6c3e 3959 043f c53a 6dbc
00000170: 5cf2 b43e d484 eb3e e228 0d3e 1ae0 a23e
00000180: 2607 443f 1257 223e c804 0a3f 0dbd ef3e
00000190: d66f bf3d 0e39 bd3e 83d3 153f 15b3 903d
000001a0: 2e87 c13e 2051 b43e 9111 bd3c dcac 2c3e
000001b0: 4c4a ee3e eae7 853c 5210 0d3f 650c c93e
000001c0: 674d f53b 17a7 d83e f435 223f 2f4a dc3d
000001d0: 8cda 0a3f d02c c43e 0b7e 1d3d bcd9 c73e
000001e0: 446f 693f 7c6d 743e cf22 b93e a3d4 a43e
000001f0: 975d 6fbd 6d15 ea3e 4cb6 633f 8c72 913e
00000200: 6928 0b3f 7426 cb3e ad67 b33b d931 033d
00000210: 6984 883f e574 cc3e 5678 c93e ff18 ab3e
00000220: 33c0 12be 15d6 b23e 686a 803f 39db 0a3f
00000230: 4906 ee3e 93d9 ae3e c418 b5bc 4592 f13e
00000240: 524a 5d3f beda 043f e442 f93e 52d7 8b3e
00000250: e95c 633d 4b14 ab3e dc45 693f b963 df3e
00000260: 049c a23e 01d3 a73e 596f 4a3d bbfc 063e
00000270: bfd9 543f 8e5f 833e 3613 d33e 1f4d 0c3f
00000280: fa11 af3c c6e1 403e ab43 6d3f 6e02 0c3f
00000290: fdf0 ab3e 75fe d13e bb47 063e 9d97 1a3e
000002a0: 6d5c 683f accf a13e 4f57 9d3e 58df e23e
000002b0: 980c 8fbd 045d 513d 2b3d 6d3f 44c2 f83e
000002c0: 0315 ca3e a917 ae3e d935 0fbe 6c2b e73d
000002d0: e38f 663f 90f2 d13e d15c cb3e f209 ae3e
000002e0: d0b2 54bd d98d 963d 3c43 873f c27d 123f
000002f0: 4d39 093f 66a8 1d3e 13e8 2bbc 5965 823e
00000300: 1efa 833f f365 cb3e 2972 b53e 0351 1f3e
00000310: 1156 39bd 3197 0a3e 662c 833f 3a40 043f
00000320: d17c a73e 34e5 123e 8582 043e 76e0 ad3b
00000330: 443c 8d3f 7562 053f 8c1a 013f df3c df3d
00000340: 3241 203d 8336 973e ae5a 943f c590 fc3e
00000350: 2f53 ed3e 04a2 a43d 58be ac3d 16a1 a23c
00000360: 7227 b33f 3397 133f faaa 0a3f bdca 0d3e
00000370: 14b5 843e c0d0 c4bc 181f a93f 3c5f 363f
00000380: 6884 cf3e c3bb 383e 32d6 1f3e b762 db3d
00000390: 7604 923f 5516 2e3f 187f 0d3f e65f bd3d
000003a0: 6df6 de3d 00f4 723b 5cba 8b3f 70ed 1f3f
000003b0: fd46 d03e 0938 c93d 3ee8 a83e 418e 873d
000003c0: 437c 753f 39b2 213f 9674 fb3e 52eb 6a3d
000003d0: b158 1b3e 748d 993d 839f 803f a5fc f53e
000003e0: 0c31 dc3e fc25 be3d 3101 b13d 6fc1 943e
000003f0: c7f7 7c3f 061e 173f 5413 083f 033c 453d
0.58984107 -0.12403727 0.34866428 -0.34720394 0.11939818 -0.2933715 0.43875226 0.009197257
0.34123415 -0.37982902 -0.095391765 -0.31310448 0.6898321 -0.003952813 0.33271825 -0.29126877
0.04967848 -0.17327511 0.6179141 0.1615682 0.31781262 -0.2791724 -0.012658951 -0.40259108
0.645808 -0.115583405 0.44648486 -0.2609419 -0.03839084 -0.34522793 0.531712 0.019386437
0.5477349 -0.06567246 0.30346522 -0.3150647 0.5126308 -0.2887026 0.35098356 -0.021228107
0.14168559 -0.31632724 0.66368425 -0.14879788 0.43419784 0.068244375 0.07106495 -0.36885452
0.96520406 -0.11136086 0.50261825 0.07699225 0.083065666 -0.12403883 0.8252992 -0.022808477
0.44750252 0.14437313 0.06727001 -0.4784939 0.71677333 0.034224242 0.3783294 0.3538882
0.033625565 -0.35829264 0.8393619 -0.07250403 0.31339726 0.26334935 -0.018552177 0.13762695
0.71113896 -0.0043107285 0.3704465 0.46512756 0.06368201 -0.08378309 0.6734348 0.14430133
0.49909413 0.44832882 -0.115142904 -0.11263856 0.79060805 0.020116078 0.36002997 0.4045322
0.16194391 0.2309923 0.5169864 -0.014479344 0.35341156 0.45999777 0.13785127 0.318116
0.7657341 0.15853527 0.53913546 0.46823922 0.09347503 0.36957592 0.58525866 0.07065407
0.37798446 0.35218143 0.023079665 0.16862816 0.4654106 0.016345937 0.5510303 0.3926727
0.0074860337 0.4231498 0.63363576 0.10756337 0.54239726 0.3831544 0.038450282 0.39033306
0.911854 0.2386989 0.3615937 0.3219348 -0.058438864 0.45719472 0.8895004 0.28407705
0.54358536 0.39677775 0.0054750056 0.03202996 1.0665408 0.39932933 0.39349622 0.33417508
-0.1433113 0.34928957 1.0032473 0.5424076 0.4648917 0.3415037 -0.022106536 0.47181907
0.8644153 0.51896274 0.48683846 0.27312714 0.055508528 0.3341392 0.9112222 0.4363077
0.31759655 0.3277817 0.049422596 0.13182347 0.83144754 0.2565884 0.41225594 0.5480518
0.021370877 0.18836126 0.9268138 0.5469121 0.33582297 0.41014448 0.131133 0.15096898
0.9076603 0.31603754 0.30730674 0.44311023 -0.06984824 0.051114097 0.9267146 0.48585713
0.39469156 0.34002426 -0.13985385 0.11287579 0.90063304 0.41005373 0.3971925 0.33991963
-0.05192834 0.07351274 1.0567393 0.5722314 0.5360306 0.1539627 -0.0104923425 0.25467947
1.0310705 0.3972622 0.3543866 0.15558247 -0.045248095 0.13534237 1.0247924 0.516605
0.32712415 0.14345247 0.12940414 0.005306299 1.1034017 0.5210336 0.5043113 0.10900282
0.039124675 0.29533777 1.1590173 0.493292 0.46352527 0.080387145 0.08434743 0.019852202
1.3996413 0.57652587 0.5416714 0.1384687 0.25919402 -0.024025321 1.3212614 0.71239066
0.40530705 0.18040375 0.15609053 0.10712188 1.1407611 0.68002826 0.55272055 0.09246807
0.10886846 0.0037071705 1.0916247 0.62471676 0.4067916 0.09825141 0.32989687 0.0661893
0.95892733 0.6316257 0.49112386 0.057353325 0.15170552 0.07497683 1.0048679 0.48044315
0.4300617 0.09284589 0.08642805 0.29053828 0.9881558 0.5903019 0.5315449 0.048152935

arith.constant2 f4 [16]
00000000: e743 f33e 3297 053e 3d31 18be ac29 05be
00000010: abf8 8b3e 09ef 25be 4bc7 343e b50a a03e
00000020: e05a 1b3e 507c 23be ff93 16be 59dc e43d
00000030: e977 1fbe 7aa8 893e c699 0e3e e938 0dbe
0.47512743 0.13045958 -0.14862533 -0.13004178 0.27338156 -0.16204466 0.17654149 0.3125817
0.15171385 -0.1596539 -0.14704894 0.111748405 -0.15573086 0.2688635 0.13925847 -0.13791241

arith.constant3 f4 [2]
00000000: affc 08c0 a6fc 0840
-2.1404226 2.1404204
